@import 'index';

$mediaMaxWidth: 1260px;
$mediaBp1Width: 960px;
$mediaMinWidth: 480px;

@function translate-media-condition($c) {
  $condMap: (
    "screen": "only screen",
    "print": "only print",
    "retina": "(-webkit-min-device-pixel-ratio: 1.5), (min--moz-device-pixel-ratio: 1.5), (-o-min-device-pixel-ratio: 3/2), (min-device-pixel-ratio: 1.5), (min-resolution: 120dpi)",
    ">maxWidth": "(min-width: #{$mediaMaxWidth + 1})",
    "<maxWidth": "(max-width: #{$mediaMaxWidth})", 		
    ">bp1Width": "(min-width: #{$mediaBp1Width + 1})",
    "<bp1Width": "(max-width: #{$mediaBp1Width})",
    ">minWidth": "(min-width: #{$mediaMinWidth + 1})",
    "<minWidth": "(max-width: #{$mediaMinWidth})"
  );
  @return map-get( $condMap, $c );
}

// The mdia mixin
@mixin media($args...) {
  $query: "";
  @each $arg in $args {
    $op: "";
    @if ( $query != "" ) {
      $op: " and ";
    }
    $query: $query + $op + translate-media-condition($arg);
  }
  @media #{$query}  { @content; }
}

html {
    box-sizing: border-box;
    font-size: 16px;
    @include media("<maxWidth", ">bp1Width"){
        font-size:13px;
    }
    @include media("<bp1Width", ">minWidth"){
        font-size: 10px;
    }
    @include media("<minWidth"){
        font-size: 9px;
    }
}
*, *:before, *:after {
    box-sizing: inherit;
}

body {
    background-color: #fefefe;
    height: 100vh;
    width: 100%;
    padding: 0;
    margin: 0;
}
/************************************************NAVBAR************************************************/
$nav_bg_color: #ab47bc;
$nav_text_color: #ffeb3b;
$sub_nav_bg_color: #790e8b;

$empty_node_bg_color: #fff1ff;
$empty_node_border_color: #790e8b;
$start_node_bg_color: #42a5f5;
$end_node_bg_color: #ff7043;
$wall_node_color: #5f4339;

$weight1_color: #f8bbd0;
$weight2_color: #f48fb1;
$weight3_color: #f06292;
$weight4_color: #ec407a;
$weight5_color: #e91e63;
$weight6_color: #d81b60;
$weight7_color: #c2185b;
$weight8_color: #ad1457;
$weight9_color: #880e4f;

#nav_container{
    position: relative;
    height: 4vh;
    min-height: 3rem;
    width: 100%;
    #nav_bar {
        display: flex;
        flex-direction: row;
        position: relative;
        background-color: $nav_bg_color;
        border: none;
        height: 4vh;
        min-height: 3rem;
        margin: 0px;
        z-index: 1000;
        font-size: 1rem;
        li {
            flex-shrink: 1;
            display: flex;
            flex-direction: column-reverse;
            justify-content: center;
            margin: 0px;
            #home {
                font-family: 'Damion', cursive;
                font-size: 2rem;
                margin-right: 0.5rem;
                margin-left: 0.5rem;
                padding-bottom: 0px;
                padding-top: 0px;
                color: $nav_text_color;
                &:hover{
                    background-color: $nav_bg_color;                
                }
            }
            a {
                border: none;
                font-size: 1rem;
                color: $nav_text_color;
                padding: 0.6rem;
                &#selected_algorithm, &#maze{
                    font-size: 1.2rem;
                    margin-top: auto;
                }
                &._opened{
                    background-color: $sub_nav_bg_color;
                }
                &:hover{
                    background-color: $sub_nav_bg_color;
                }
                &#selected_algorithm, &#maze{
                    margin-right: 0.2rem;
                }
                &#RUN, &#random_weights, &#reset_weights, &#reset_walls, &#reset_grid, &#tutorial{
                    border-radius: 5px;
                }
                &#tutorial{
                    margin-right: 0.5rem;
                    &:focus{
                        outline: none;
                    }
                }
            }
            #RUN{
                // background-color: #5c6bc0;
                &.disabled{
                    color: #cacaca;
                }
            }
    
        }
        #RUN_container{
            margin-left: auto;
        }
    }
}


.nav-tabs .nav-item.show .nav-link {
    background-color: #df78ef;
    border-color: #790e8b;
}

@keyframes _visible{
    100%{
        visibility: visible;
    }
}

@keyframes slide_down {
    0% {
        transform: translateY(-200px);
    }
    100% {
        transform: translateY(0px);
        visibility: visible;
    }
}

.slide_down{
    animation: slide_down 300ms;
    animation-fill-mode: forwards;
    transition: visibility 0s;
}

@keyframes slide_up{
    0%{
        transform: translateY(0px);
    }
    100%{
        visibility: hidden;
        translate: translateY(-200px);
    }
}

.slide_up{
    animation: slide_up 300ms;
    animation-fill-mode: forwards;
    transition: visibility 300ms;
}

@keyframes preview_hover{
    0%{
        transform: scale(1);
    }
    100%{
        transform: scale(1.2);
    }
}

#algo_tabs, #maze_tabs {
    position: absolute;
    width: 100%;
    padding: 20px 0px 20px 0px;
    background-color: $sub_nav_bg_color;
    visibility: hidden;
    z-index: 100;
    ul{
        list-style: none;
        display: flex;
        flex-direction: row;
        justify-content: center;
        flex-grow: 1;
        margin: 0;
        padding: 0;
        
        li{
            display: flex;
            flex-direction: column;
            justify-content: center;
            margin-left: auto;
            margin-right: auto;
            
            a{
                color: #fff1ff;
                font-size: 1rem;
                flex-grow: 1;
                padding: 10px;
                text-align: center;
                text-decoration: none;
                &:hover{
                    animation: preview_hover 100ms;
                    animation-fill-mode: forwards;
                }
            }
        }
    }
}
/************************************************INFO BAR************************************************/

#info_container{
    display: flex;
    flex-direction: row;
    justify-content: center;
    padding: 20px 5% 20px 5%;
    height: 8vh;
    min-height: 3rem;
    #starting_node, #ending_node, #unvisited_node, #visited_node, #wall_node, #weighted_node{
        display: flex;
        flex-direction: column;
        justify-content: center;
        position: relative;
        margin-left: 10px;
        margin-right: 10px;
        height: 2rem;
        min-width: 2rem;
    }
    #starting_node{
        background-color: $start_node_bg_color;
        border: 1px solid $start_node_bg_color;
    }
    #ending_node{
        background-color: $end_node_bg_color;
        border: 1px solid $end_node_bg_color;
    }
    #unvisited_node{
        background-color: $empty_node_bg_color;
        border: 1px solid $empty_node_border_color;
    }
    #visited_node{
        background-color: #ab47bc;
    }
    #wall_node{
        background-color: $wall_node_color;
        border: 1px solid $wall_node_color;
    }
    #weighted_node{
        background-color: $empty_node_bg_color;
        border: 1px solid $empty_node_border_color;
        i{
            color: $weight5_color!important;
        }
    }
    #info{
        margin: 0 auto 0 auto;
        p{
            font-size: 1rem;
        }
    }
    #starting_node i, #ending_node i, #weighted_node i{
        font-size: 1.2rem;
        color: #fcfcfc;
        margin: 0 auto 0 auto;
    }
}

/************************************************GRID************************************************/
@keyframes wall{
    0%{
        transform: scale(0.8);
    }
    70%{
        transform: scale(1.2);
    }
    100%{
        transform: scale(1);
    }
}
@keyframes _expanded{
    0%{
        transform: scale(0.5);
    }
    70%{
        transform: scale(2.5);
    }
    100%{
        transform: scale(2);
    }
}

#grid_container {
    display: flex;
    height: 88vh;
    position: relative;
    flex-direction: row;
    justify-content: center;
    #grid_table {
        width: 98%;
        border-spacing: 0px;
        border-collapse: collapse;
        #grid_body{
            .grid_row{
                height: 3.2vh;
                .node {
                    @include media("<maxWidth", ">bp1Width"){
                        height: 1.5rem;
                    }
                    @include media("<bp1Width", ">minWidth"){
                        height: 1.3rem;
                    }
                    @include media("<minWidth"){
                        height: 1rem;
                    }
                    position: relative;
                    padding: 0px;
                    height: 1.8rem;
                    width: 1.8rem;
                    border: 1px solid $empty_node_border_color;
                    background-color: $empty_node_bg_color;
                    transition: background-color 300ms ease forwards; 
                    user-select: none;
                    z-index: 0;
                    text-align: center;
                    &.wall{
                        border-color: $wall_node_color!important;
                        background-color: $wall_node_color!important;
                        animation: wall 100ms ease forwards;
                    }
                    &.start{
                        background-color: $start_node_bg_color;
                        border: none;
                        i{
                            @include media("<maxWidth", ">bp1Width"){
                                font-size: 0.8rem;
                            }
                            @include media("<bp1Width", ">minWidth"){
                                font-size: 0.6rem;
                            }
                            @include media("<minWidth"){
                                font-size: 0.5rem;
                            }
                            font-size: 1rem;
                            color: #fcfcfc;
                        }
                        &.expanded{
                            display: flex;
                            flex-direction: column;
                            justify-content: center;
                            animation: _expanded 300ms ease forwards;
                            position: absolute;
                            background-color: $start_node_bg_color!important;
                            border-radius: 50%;
                            width: 2rem;
                            height: 2rem;
                            z-index: 1000;
                        }
                    }
                    &.end{
                        background-color: $end_node_bg_color;
                        border: none;
                        i{
                            @include media("<maxWidth", ">bp1Width"){
                                font-size: 0.8rem;
                            }
                            @include media("<bp1Width", ">minWidth"){
                                font-size: 0.6rem;
                            }
                            @include media("<minWidth"){
                                font-size: 0.5rem;
                            }
                            left: 24%;
                            font-size: 1rem;
                            color: #fcfcfc;
                        }
                        &.expanded{
                            display: flex;
                            flex-direction: column;
                            justify-content: center;
                            animation: _expanded 300ms ease forwards;
                            position: absolute;
                            background-color: $end_node_bg_color!important;
                            border-radius: 50%;
                            width: 2rem;
                            height: 2rem;
                            z-index: 1000;
                        }
                    }
                    &.weight{
                        .weight1, .weight2, .weight3, .weight4, .weight5, .weight6, .weight7, .weight8, .weight9{
                            animation: weight_scale 1300ms ease forwards;
                        }
                        .weight1{
                            color: $weight1_color;
                        }
                        .weight2{
                            color: $weight2_color;
                        }
                        .weight3{
                            color: $weight3_color;
                        }
                        .weight4{
                            color: $weight4_color;
                        }
                        .weight5{
                            color: $weight5_color;
                        }
                        .weight6{
                            color: $weight6_color;
                        }
                        .weight7{
                            color: $weight7_color;
                        }
                        .weight8{
                            color: $weight8_color;
                        }
                        .weight9{
                            color: $weight9_color;
                        }
                    }
                    i{
                        position: absolute;
                        left: 30%;
                        top: 20%;
                    }
                }
            }
        }
    }
}

@keyframes weight_scale{
    0%{
        transform: scale(0.5);
    }
    50%{
        transform: scale(1.3);
    }
    100%{
        transform: scale(1);
    }
}

.modal{
    .modal-dialog{
        width: 80%;
        .modal-content{
            .modal-header{
                background-color: $nav_bg_color;
                justify-content: center;
                #tutorial_modal_title{
                    font-family: 'Damion', cursive;
                    font-size: 2.2rem;
                    color: $nav_text_color;
                }
            }
            .modal-body{
                display: flex;
                flex-direction: column;
                h5{
                    width: 100%;
                    padding: 10px 0px 10px 0px;
                    text-align: center;
                    color: $nav_text_color;
                    background-color: $nav_bg_color;
                }
                img{
                    margin-left: auto;
                    margin-right: auto;
                }
                p{
                    font-size: 1.2rem;
                    padding: 10px 0px 5px 0px;
                    span{
                        padding: 3px;
                        color: $nav_text_color;
                        background-color: $nav_bg_color;
                        &.weight5{
                            background-color: white;
                            color: $weight5_color;
                        }
                    }
                    
                }
                ul{
                    font-size: 1.2rem;
                    list-style: none;
                    padding: 0px;
                    li{
                        padding: 5px;
                        span{
                            padding: 3px;
                            color: $nav_text_color;
                            background-color: $nav_bg_color;
                        }
                    }
                }
            }
        }
    }
}

@import "sortingStyles";